mlenv_checkpoints/dqn_policy.pt (torch, 113209 bytes, 6 tensors)

net.0.weight f4 [128, 75]
-0.0559273 -0.22904144 0.12763381 -0.036879692 -0.040252887 -0.38899422 -0.04210473 -0.11043772
0.04522527 0.022831643 0.1471241 0.1946744 -0.2755599 0.08108013 -0.042150576 0.013993828
0.11367186 0.11029558 0.24747683 -0.080036476 -0.048268992 -0.045273893 0.113301866 0.08456663
0.0053584217 0.24895586 -0.32746202 0.08536208 -0.0064402237 0.04227914 0.014597894 -0.3313757
0.14973733 0.32307568 -0.095044605 -0.02366005 0.20434067 -0.30148762 0.1631702 0.41735193
0.12320419 -0.055682693 -0.100669235 -0.17485406 -0.06642873 -0.029505193 0.10370604 0.035982836
-0.10945038 0.1151848 0.05530658 -0.22695939 -0.15598142 0.047418274 -0.3211948 0.00050979323
-0.0541977 0.1240153 -0.18251587 0.1396806 0.031945776 0.3166017 -0.03438361 0.06226482
-0.0036283578 -0.19646262 0.21201086 -0.023393879 -0.040661857 0.04615246 0.0022659285 -0.023358474
0.25694564 -0.11777671 -0.18609102 -0.03565821 0.07016311 -0.110583715 0.07469132 -0.08408179
0.0146155795 -0.052170634 -0.10989045 0.07548735 -0.044182085 -0.031078987 0.0025379271 -0.027109075
0.05154925 -0.021268308 0.02971803 0.024488766 0.076536074 -0.057300653 -0.04220639 -0.068689846
0.0020300362 0.041881233 -0.11186422 -0.03682052 -0.082913406 -0.029036714 0.0050120666 -0.0077701667
-0.10325383 -0.0286348 0.012191215 -0.10950281 -0.087817006 0.0040015015 0.011459558 0.040103126
0.06322003 -0.072908364 -0.0679458 -0.106870264 -0.10230423 0.045396525 0.008309456 -0.0033734962
-0.09518665 0.086164206 -0.099582456 0.0425756 -0.104759425 0.023832224 0.019817453 0.03953321
-0.006375982 0.016545406 -0.09461516 0.035976157 0.09661874 -0.06240156 -0.10512072 0.08021596
-0.10792698 -0.06914857 0.08624313 -0.08832374 -0.0509077 -0.036435455 0.02405175 0.10306219
-0.029287692 0.005779512 -0.11053704 0.09131373 0.022972649 -0.092830315 -0.20570925 0.01590887
-0.15420397 -0.079901166 -0.04951946 -0.6077495 -0.10444616 0.010912313 0.056683507 0.19621123
-0.14383307 -0.05469759 -0.031673964 -0.05118976 -0.104111105 0.12862548 -0.14302073 -0.045297563
0.3140439 -0.42571342 0.053566076 0.057585344 0.023858758 0.1547149 0.27403983 0.09559709
-0.30978027 0.039424907 0.027981179 -0.015540171 -0.08828204 0.17173877 0.0371476 -0.03928609
0.035846945 0.04805718 0.16822262 0.005488435 -0.08047578 0.17376156 0.20772505 -0.023102421
0.07810207 0.052984923 0.060971577 0.040295783 -0.06922467 0.2827246 -0.033235386 -0.06565556
-0.07187659 0.10687781 -0.097304836 0.20708892 -0.10379568 -0.088552244 0.0807848 -0.023050938
0.021701992 0.0076365056 0.10963639 0.015442305 -0.006077774 0.07497413 0.11357268 0.044072453
-0.059527636 0.20367487 0.10313362 0.048017357 0.054962695 0.100538015 -0.1468498 0.2250122
-0.06735874 -0.20012715 0.08453351 0.08623188 0.01388472 -0.1560775 0.28843072 -0.12320824
0.04902985 0.065815814 0.006738405 -0.10334539 -0.12184446 -0.44923764 0.032503225 0.11498035
0.3013566 0.090692565 -0.12730236 0.22485963 -0.064028434 -0.0546006 -0.045168273 -0.094715394
0.06772338 -0.009503914 0.18517163 -0.22261672 0.037220582 -0.10278145 -0.06760735 -0.015580292
00000000: 0614 65bd d789 6abe 70b2 023e 290f 17bd
00000010: 36e0 24bd 402a c7be 0276 2cbd 2c2d e2bd
00000020: 223e 393d 6d09 bb3c b3a7 163e ba58 473e
00000030: 3016 8dbe 570d a63d 15a6 2cbd 5e46 653c
00000040: cbcc e83d a6e2 e13d 916a 7d3e 2aea a3bd
00000050: b5b5 45bd 1e71 39bd cf0a e83d 4531 ad3d
00000060: b395 af3b 49ee 7e3e 1aa9 a7be 50d2 ae3d
00000070: 8308 d3bb e42c 2d3d 012c 6f3c 13aa a9be
00000080: be54 193e 2d6a a53e bfa6 c2bd b9d2 c1bc
00000090: ae3e 513e 965c 9abe 1716 273e 27af d53e
000000a0: 7a52 fc3d 8913 64bd ac2b cebd f10c 33be
000000b0: c90b 88bd e0b4 f1bc d563 d43d bd62 133d
000000c0: 8527 e0bd 02e6 eb3d 2789 623d 0b68 68be
000000d0: 98b9 1fbe aa39 423d a573 a4be a5a3 053a
000000e0: 68fe 5dbd bcfb fd3d 71e5 3abe 6e08 0f3e
000000f0: 93d9 023d 9e19 a23e d4d5 0cbd 6509 7f3d
00000100: bec9 6dbb 7f2d 49be 6019 593e 85a4 bfbc
00000110: 0c8d 26bd 5d0a 3d3d f97f 143b 455a bfbc
00000120: 618e 833e ea34 f1bd a58e 3ebe 580e 12bd
00000130: adb1 8f3d b779 e2bd c3f7 983d 1333 acbd
00000140: 2f76 6f3c e0b0 55bd 3f0e e1bd 1d99 9a3d
00000150: 46f8 34bd 5c99 febc 5a53 263b da13 debc
00000160: 4e25 533d e03a aebc 3a73 f33c aa9c c83c
00000170: f2be 9c3d 17b4 6abd 9ce0 2cbd 43ad 8cbd
00000180: 5b0a 053b a88b 2b3d 1119 e5bd 1dd1 16bd
00000190: 81ce a9bd 67de edbc 433c a43b e29c febb
000001a0: be76 d3bd 8793 eabc a9bd 473c 0243 e0bd
000001b0: 67d9 b3bd 071f 833b dfc0 3b3c 2d43 243d
000001c0: 8179 813d fb50 95bd 2b27 8bbd ccde dabd
000001d0: e184 d1bd b5f1 393d 6224 083c e015 5dbb
000001e0: 38f1 c2bd dc76 b03d e3f1 cbbd c163 2e3d
000001f0: 1c8c d6bd cc3b c33c 3658 a23c 93ed 213d
00000200: 9ded d0bb 3b8a 873c 98c5 c1bd bc5b 133d
00000210: 0ce0 c53d c798 7fbd 8849 d7bd 4448 a43d
00000220: d208 ddbd c49d 8dbd 3da0 b03d 14e3 b4bd
00000230: 9884 50bd 583d 15bd 2d08 c53c 4512 d33d
00000240: beec efbc 1062 bd3b 3e61 e2bd b102 bb3d
00000250: 2331 bc3c d21d bebd 72a5 52be 5253 823c
00000260: a5e7 1dbe 39a3 a3bd ebd4 4abd 7995 1bbf
00000270: dee7 d5bd 8fc9 323c f72c 683d 99eb 483e
00000280: fa48 13be 950a 60bd 8fbc 01bd 5bac 51bd
00000290: 3438 d5bd 66b6 033e 0774 12be f089 39bd
000002a0: 5dca a03e 1cf7 d9be 1a68 5b3d 9cde 6b3d
000002b0: 7173 c33c 956d 1e3e f34e 8c3e 68c8 c33d
000002c0: 859b 9ebe 037c 213d c938 e53c 349c 7ebc
000002d0: 37cd b4bd 4adc 2f3e 1528 183d 73ea 20bd
000002e0: 3fd4 123d 9bd7 443d 8d42 2c3e 54d8 b33b
000002f0: 7cd0 a4bd 8dee 313e e0b5 543e 4a41 bdbc
00000300: faf3 9f3d b806 593d 55bd 793d 310d 253d
00000310: aac5 8dbd 47c1 903e d421 08bd 6c76 86bd
00000320: 0934 93bd c1e2 da3d c247 c7bd 1e0f 543e
00000330: d492 d4bd e15a b5bd 8072 a53d 52d5 bcbc
00000340: 60c8 b13c a73b fa3b 0b89 e03d b901 7d3c
00000350: 1028 c7bb 098c 993d cb98 e83d 5185 343d
00000360: 40d3 73bd 2590 503e b837 d33d d9ad 443d
00000370: 9020 613d e0e6 cd3d cb5f 16be 9969 663e
00000380: 61f3 89bd 22ee 4cbe e81f ad3d 579a b03d
00000390: bd7c 633c c8d2 1fbe 31ad 933e 9a54 fcbd
000003a0: 86d3 483d 71ca 863d d7cd dc3b bfa6 d3bd
000003b0: 9789 f9bd 7a02 e6be 1a22 053d d17a eb3d
000003c0: 6a4b 9a3e 06bd b93d 8d5b 02be 9a41 663e
000003d0: 5721 83bd e1a4 5fbd 5e02 39bd 25fa c1bd
000003e0: 8eb2 8a3d 4eb6 1bbc a29d 3d3e a3f5 63be
000003f0: 9c74 183d 157f d2bd b975 8abd 7b44 7fbc

net.0.bias f4 [128]
-0.060791913 -0.07270857 -0.08489286 0.05685513 -0.07370262 -0.07739655 0.048247065 0.040877894
-0.07610234 -0.026972584 -0.08132191 -0.09645734 0.050305933 0.042850938 -0.14175381 -0.07461793
-0.097646534 0.067771025 0.08421058 0.043675672 -0.13114378 -0.092705585 -0.10561579 -0.035220176
0.002904417 -0.04927047 0.06861753 -0.023204084 0.05957591 -0.062753744 0.009611806 0.015197987
-0.06638156 -0.14332043 0.074277006 0.016035546 -0.13909131 0.047814988 0.055843115 0.1374382
-0.07700448 -0.024152827 -0.055682123 -0.05998344 -0.005438824 -0.061601818 -0.117597856 0.05710597
0.050274804 0.15371342 -0.0093872445 -0.030792067 0.05398542 -0.003916696 0.008211459 0.09492908
0.012329941 -0.010124474 0.0887431 -0.008402472 -0.0005415889 0.09669311 0.08501575 -0.022259276
0.101206236 0.024538027 0.15234192 0.05184904 0.094128355 -0.06475917 0.097854935 -0.0799281
0.09318623 -0.07807418 -0.011834371 0.10177561 -0.09631332 0.0077641476 0.06750907 0.021807857
-0.12730595 0.042761657 0.06866247 -0.05016339 0.031795282 0.14080873 -0.090351336 -0.10656937
0.020206153 0.15425777 0.08380761 -0.004664606 -0.08873636 -0.047517132 0.0949839 0.033653244
-0.027872356 0.028906092 0.07469801 0.030694094 -0.139767 -0.0597468 0.044072956 -0.051087447
-0.08460788 -0.09597296 0.067804694 0.02792312 -0.14297624 -0.11333654 -0.012974533 -0.00016981295
0.060110692 0.08195048 0.029541245 -0.08998914 0.02777285 -0.01794048 0.09246207 0.062249735
-0.029059973 -0.04380809 0.077314384 -0.07552893 -0.01752955 0.1665105 0.070395246 -0.09386311
00000000: f100 79bd 3be8 94bd 4fdc adbd ede0 683d
00000010: 66f1 96bd 1582 9ebd b79e 453d 946f 273d
00000020: 8bdb 9bbd 9cf5 dcbc 1a8c a6bd 6d8b c5bd
00000030: 980d 4e3d 7784 2f3d e927 11be 49d1 98bd
00000040: e8fa c7bd 89cb 8a3d 9976 ac3d 43e5 323d
00000050: 8e4a 06be 6ddc bdbd 174d d8bd 0843 10bd
00000060: 0858 3e3b d5cf 49bd 5987 8c3d 7e16 bebc
00000070: df05 743d 0985 80bd d67a 1d3c fa00 793c
00000080: 0ef3 87bd 97c2 12be 8b1e 983d fa5c 833c
00000090: f46d 0ebe a6d9 433d c0bb 643d 99bc 0c3e
000000a0: 86b4 9dbd 26dc c5bc f012 64bd 32b1 75bd
000000b0: 2a38 b2bb 3052 7cbd 25d7 f0bd f3e7 693d
000000c0: f4ec 4d3d 0d67 1d3e f5cc 19bc a53f fcbc
000000d0: d11f 5d3d a157 80bb 5b89 063c 2d6a c23d
000000e0: 8503 4a3c 1fe1 25bc f1be b53d 86aa 09bc
000000f0: 6af9 0dba 0a07 c63d bd1c ae3d 1659 b6bc
00000100: 3745 cf3d f903 c93c 85ff 1b3e a95f 543d
00000110: 5ec6 c03d 75a0 84bd 2b68 c83d 58b1 a3bd
00000120: 6cd8 be3d 5be5 9fbd f3e4 41bc bb6f d03d
00000130: eb3f c5bd 646a fe3b 3242 8a3d 64a6 b23c
00000140: 7e5c 02be d926 2f3d e99e 8c3d 2078 4dbd
00000150: c53b 023d 2a30 103e 1f0a b9bd 0b41 dabd
00000160: 6087 a53c c0f5 1d3e 53a3 ab3d 8dd9 98bb
00000170: 69bb b5bd 53a1 42bd eb86 c23d fcd7 093d
00000180: 9154 e4bc 78cc ec3c 45fb 983d 2e72 fb3c
00000190: 151f 0fbe 10b9 74bd d885 343d 1241 51bd
000001a0: e546 adbd 798d c4bd 30dd 8a3d 07bf e43c
000001b0: 5d68 12be fd1c e8bd 2393 54bc d10f 32b9
000001c0: a136 763d a7d5 a73d 7b00 f23c 3a4c b8bd
000001d0: e383 e33c eaf7 92bc c15c bd3d 94f9 7e3d
000001e0: 2e0f eebc 1d70 33bd 0157 9e3d e9ae 9abd
000001f0: 219a 8fbc ba81 2a3e 622b 903d 4d3b c0bd

net.2.weight f4 [128, 128]
-0.006575684 -0.010779182 0.012822532 0.04613472 0.066689834 -0.03981608 0.11590702 0.040330887
0.042482432 -0.08897094 -0.019902106 0.102608435 -0.034427382 -0.039614186 -0.004941788 -0.05088162
-0.07724422 -0.08689181 0.022400228 -0.55811006 0.03993097 0.07274243 0.0071751573 0.07141857
0.08078789 -0.068276554 -0.07657029 0.17843436 -0.042861413 0.026256906 0.06276025 -0.14876708
-0.09084732 -0.13811259 -0.055908322 -0.06530274 -0.014921993 -0.039259806 -0.16938159 -0.14125417
-0.0092714 0.08620188 -0.041808292 -0.22187205 -0.059030186 0.07475467 0.10822725 0.19530642
0.2041046 0.094264224 0.14941101 -0.09562158 -0.009887775 0.022633832 0.027357131 0.013649458
0.18176591 0.07677111 0.06939398 0.053175177 -0.030863378 -0.03667543 -0.007143201 -0.07179462
-0.046691626 0.024659768 0.08252902 0.13499749 0.031168817 0.044030506 -0.06976128 0.114750065
0.38041312 -0.0021998126 -0.0694177 0.16904937 -0.15510368 0.010754439 -0.018813478 0.0575759
-0.072419755 0.04894898 0.041352622 0.086843215 -0.027747883 -0.13457705 -0.02326414 0.085915804
-0.15430579 0.005793097 0.19518359 0.075388014 0.08245897 -0.20583248 0.0016791704 -0.0834337
0.085704185 -0.0735148 -0.0024032008 -0.08336295 -0.008579427 -0.41141155 -0.0128876 -0.12898614
-0.18491274 0.13503206 0.1646002 0.12734061 -0.04564792 0.054442465 -0.0046027307 -0.038734615
0.060935553 0.017514938 0.080117606 -0.03842839 -0.01610174 0.0032729032 -0.011266324 0.051922005
-0.013849139 0.14059299 0.0076551707 -0.022382924 -0.33526817 0.15337163 -0.07049927 -0.05754749
-0.23061074 -0.04090109 0.06423366 -2.2282293e-05 0.058850296 0.12609696 -0.09032695 0.003070866
0.056710206 -0.6234781 -0.060671303 -0.22067642 -0.0003085271 -0.10442627 0.15691195 0.0009882501
-0.012760802 0.012425836 0.10703219 -0.08156004 0.0622076 0.13103385 -0.035598096 0.04410182
-0.08168067 0.027637789 -0.08115493 -0.09057329 -0.13149327 -0.0034941528 0.030974414 0.0068914564
0.2529383 -0.048693325 0.050497666 0.0100811785 -0.23911794 0.03104577 -0.08490358 -0.06614927
0.05747983 0.015716217 -0.059711087 0.11413695 -0.078234136 0.055850387 -0.03943731 0.031238291
0.070730425 -0.21310388 0.18711618 -0.20796394 0.18812938 -0.06961014 -0.12504251 0.15556122
-0.15585324 -0.0701935 -0.123296976 -0.0023691065 -0.06928514 0.12640765 0.18325599 0.03258054
0.25993413 0.04511288 -0.16185455 -0.01427555 -0.005125832 0.0713803 -0.07713161 0.15697537
0.2081571 0.006809961 -0.11024036 0.14491159 -0.22666232 -0.17363732 -0.23886505 0.21703683
-0.14308469 0.041633558 -0.2332884 -0.07915898 -0.07237639 0.14739378 0.18492861 -0.052235685
-0.055528145 0.06803795 0.18005411 -0.45680395 -0.049760416 0.28178406 -0.11606317 -0.092993975
-0.04771266 -0.07553042 0.019165678 -0.15817955 0.004333225 -0.31486362 -0.11953545 -0.036865443
0.060944613 -0.04324963 -0.21006481 0.04041446 0.07374259 0.09658008 -0.0759483 -0.036494613
-0.020739637 -0.029037077 0.047195476 -0.030138675 0.022596978 -0.38267028 0.010214464 0.10952233
-0.0518045 0.14952052 0.024992919 0.016339572 -0.21487951 -0.114034556 0.031404313 0.023488704
00000000: d678 d7bb 2b9b 30bc 9915 523c c3f7 3c3d
00000010: ae94 883d 3016 23bd a960 ed3d 0032 253d
00000020: 0f02 2e3d 6536 b6bd be09 a3bc 5f24 d23d
00000030: ba03 0dbd 7c42 22bd b9ee a1bb 3f69 50bd
00000040: 3832 9ebd 55f4 b1bd af80 b73c 4de0 0ebf
00000050: a88e 233d fcf9 943d 951d eb3b e643 923d
00000060: 1f74 a53d 94d4 8bbd e2d0 9cbd 7fb7 363e
00000070: 738f 2fbd b918 d73c 7288 803d 6656 18be
00000080: 290e babd 636d 0dbe 2000 65bd 71bd 85bd
00000090: 607b 74bc e4ce 20bd 5e72 2dbe efa4 10be
000000a0: 12e7 17bc 9c8a b03d 2c3f 2bbd 6d32 63be
000000b0: a3c9 71bd fa18 993d 40a6 dd3d 68fe 473e
000000c0: cc00 513e 9a0d c13d 33ff 183e 3fd5 c3bd
000000d0: 5600 22bc 966a b93c 101c e03c faa1 5f3c
000000e0: d820 3a3e 2c3a 9d3d 6e1e 8e3d 37ce 593d
000000f0: 32d5 fcbc fa38 16bd 8311 eabb 0f09 93bd
00000100: b83f 3fbd 4803 ca3c fa04 a93d c83c 0a3e
00000110: bf55 ff3c 5559 343d 01df 8ebd 1502 eb3d
00000120: 82c5 c23e bb2a 10bb de2a 8ebd 471b 2d3e
00000130: 80d3 1ebe 6333 303c b91e 9abc b5d4 6b3d
00000140: cf50 94bd ba7e 483d 5e61 293d dbda b13d
00000150: 874f e3bc 91ce 09be 7094 bebc a0f4 af3d
00000160: 5602 1ebe 05d4 bd3b 35de 473e 0865 9a3d
00000170: 40e0 a83d c0c5 52be 9c17 dc3a 4adf aabd
00000180: ad85 af3d ed8e 96bd 057f 1dbb 32ba aabd
00000190: ba90 0cbc 89a4 d2be 8326 53bc f114 04be
000001a0: c459 3dbe d845 0a3e f48c 283e 9465 023e
000001b0: 50f9 3abd 10ff 5e3d 81d2 96bb 30a8 1ebd
000001c0: 8f97 793d 7d7b 8f3c b314 a43d 1667 1dbd
000001d0: cce7 83bc 347e 563b 6396 38bc 2bac 543d
000001e0: 80e7 62bc 9cf7 0f3e 3ad8 fa3b 655c b7bc
000001f0: 45a8 abbe 740d 1d3e ec61 90bd ebb6 6bbd
00000200: 3925 6cbe e787 27bd f08c 833d dcea bab7
00000210: 020d 713d 901f 013e 56fd b8bd 9540 493b
00000220: f648 683d 439c 1fbf 7982 78bd 00f9 61be
00000230: cec1 a1b9 71dd d5bd 87ad 203e 2c88 813a
00000240: af12 51bc bc95 4b3c b133 db3d f308 a7bd
00000250: 65cd 7e3d bd2d 063e 4fcf 11bd 1ca4 343d
00000260: 3248 a7bd a568 e23c 8e34 a6bd 7d7e b9bd
00000270: 2ca6 06be 28fe 64bb 0ebe fd3c bad1 e13b
00000280: 2181 813e a772 47bd a4d6 4e3d 872b 253c
00000290: 55db 74be b353 fe3c eee1 adbd 4579 87bd
000002a0: f86f 6b3d 4cbf 803c 9d93 74bd a2c0 e93d
000002b0: 3839 a0bd 60c3 643d 0489 21bd 72e7 ff3c
000002c0: 1ddb 903d e737 5abe 629b 3f3e 80f4 54be
000002d0: fda4 403e c38f 8ebd 250b 00be 714b 1f3e
000002e0: fe97 1fbe 9cc1 8fbd 2083 fcbd 0343 1bbb
000002f0: 5ee5 8dbd 0271 013e 75a7 3b3e 2c73 053d
00000300: 1616 853e 49c8 383d 33bd 25be ffe3 69bc
00000310: 98f6 a7bb d62f 923d 2df7 9dbd 27be 203e
00000320: 2327 553e 1826 df3b b3c5 e1bd b463 143e
00000330: 2b1a 68be fbcd 31be 0a99 74be e73e 5e3e
00000340: cb84 12be f387 2a3d 28e3 6ebe 1a1e a2bd
00000350: 133a 94bd 65ee 163e ed5d 3d3e 16f5 55bd
00000360: 7b71 63bd 7b57 8b3d 1b60 383e 35e2 e9be
00000370: 94d1 4bbd 0046 903e 87b2 edbd a073 bebd
00000380: 5a6e 43bd b1af 9abd 5701 9d3c d2f9 21be
00000390: bafd 8d3b ce35 a1be 01cf f4bd 3800 17bd
000003a0: 0fa1 793d 8626 31bd 3b1b 57be a289 253d
000003b0: 5b06 973d c7cb c53d c88a 9bbd 607b 15bd
000003c0: 2ce6 a9bc 2adf edbc 0b50 413d 62e5 f6bc
000003d0: 4c1d b93c 5ced c3be 915a 273c 3e4d e03d
000003e0: f530 54bd e81b 193e f3bd cc3c 91da 853c
000003f0: 6009 5cbe f38a e9bd cfa1 003d 626b c03c

net.2.bias f4 [128]
0.018291518 -0.053800095 0.116461344 -0.0071025146 0.03177496 0.04720232 -0.10478843 -0.053766232
-0.10098724 -0.09918992 -0.10677845 0.028250584 0.012024928 -0.004163827 -0.10291703 0.056888595
0.15312636 0.04238948 0.049955886 0.08516778 -0.081502266 0.09825498 -0.01420638 0.013271186
-0.04592069 0.01776313 0.060857028 0.04987143 -0.068746604 0.15549867 0.002758353 0.1112203
0.10702417 -0.050064035 -0.08264366 0.0025255063 -0.013926227 0.022130886 0.072290674 0.025411084
0.12637728 0.18809555 -0.032417327 -0.036178473 -0.0759679 0.031460922 0.09633755 0.0021325469
-0.037426442 -0.0128281135 -0.08348982 0.10413219 0.1000621 0.07532595 -0.0074034333 -0.08644493
0.031915616 -0.014887974 0.039404597 -0.058753517 0.02752035 0.064821474 0.09086549 -0.033726223
0.104694836 -0.040644914 -0.00948721 0.05966555 0.04599772 0.05461576 0.019296749 0.09626155
0.07313663 -0.051377058 0.06413733 -0.116335966 -0.018070364 0.11238701 0.1195054 -0.0943453
-0.06744577 0.0392503 0.20729874 0.019833285 -0.033541285 0.16164398 0.04058221 0.040065985
-0.043267127 0.0048578545 0.19322613 -0.08580982 -0.05916664 0.04110478 0.02182892 0.09808437
-0.002012199 0.07820713 -0.020972837 0.0709745 0.06886462 0.1893368 0.0027356038 0.010445939
0.048215754 -0.110371865 -0.096340835 0.16006048 0.037357062 -0.08635297 0.05384052 -0.0006020856
0.062163435 0.04450394 0.07662796 0.03499943 0.0008016159 0.04091157 0.058487576 -0.004462821
-0.08808749 0.19313653 0.1930119 0.017506592 0.030579455 -0.033337004 0.1385111 -0.13155414
00000000: 18d8 953c 7d5d 5cbd 4983 ee3d 36bc e8bb
00000010: 7626 023d 3857 413d 519b d6bd fb39 5cbd
00000020: 66d2 cebd 1624 cbbd a9ae dabd c56d e73c
00000030: 3404 453c b670 88bb 2ac6 d2bd 0404 693d
00000040: 28cd 1c3e 97a0 2d3d 8b9e 4c3d 726c ae3d
00000050: a9ea a6bd e839 c93d e0c1 68bc 636f 593c
00000060: 5517 3cbd fc83 913c 3845 793d fc45 4c3d
00000070: 05cb 8cbd 0b3b 1f3e 7cc5 343b 78c7 e33d
00000080: 7d2f db3d f20f 4dbd 1441 a9bd f782 253b
00000090: d42a 64bc d54b b53c 220d 943d e82a d03c
000000a0: 0c69 013e 1f9c 403e 08c8 04bd e12f 14bd
000000b0: 0f95 9bbd 2bdd 003d 9f4c c53d 33c2 0b3b
000000c0: 784c 19bd 022d 52bc b6fc aabd 4243 d53d
000000d0: 5ced cc3d 7e44 9a3d 8098 f2bb 0a0a b1bd
000000e0: f3b9 023d b0ec 73bc b766 213d 87a7 70bd
000000f0: 5b72 e13c 1fc1 843d b017 ba3d 8224 0abd
00000100: 3f6a d63d 487b 26bd 3e70 1bbc dd63 743d
00000110: 1b68 3c3d c6b4 5f3d 3714 9e3c c724 c53d
00000120: a8c8 953d c070 52bd 6f5a 833d 8d41 eebd
00000130: 4d08 94bc 292b e63d 3fbf f43d 1c38 c1bd
00000140: 0221 8abd ecc4 203d 1f46 543e 6a79 a23c
00000150: 9662 09bd 0086 253e 8839 263d 3b1c 243d
00000160: df38 31bd a32e 9f3b 12dd 453e 0fbd afbd
00000170: b858 72bd 7c5d 283d 90d2 b23c 75e0 c83d
00000180: 19df 03bb 0f2b a03d 3acf abbc 145b 913d
00000190: e508 8d3d 82e1 413e d147 333b 7225 2b3c
000001a0: e27d 453d a50a e2bd 584e c5bd e5e6 233e
000001b0: b803 193d d3d9 b0bd e187 5c3d 48d5 1dba
000001c0: 169f 7e3d c349 363d 1fef 9c3d 905b 0f3d
000001d0: 8823 523a e492 273d ab90 6f3d db3c 92bb
000001e0: 3767 b4bd 95c5 453e e9a4 453e fc69 8f3c
000001f0: c481 fa3c 628c 08bd dbd5 0d3e 21b6 06be

net.4.weight f4 [10, 128]
-0.1342282 -0.044003308 0.2288185 -0.4258171 0.055059735 -0.0008511116 -0.03637428 -0.10000106
-0.05838149 -0.07293114 0.013808537 0.0910307 0.02924354 0.08082353 -0.076750994 -0.011457758
-0.035249755 -0.016567644 0.06316077 0.010856387 -0.06163439 0.02385643 0.06641358 0.36262503
0.2387897 0.08518658 0.085761316 0.09684 -0.07271138 0.49715033 0.16775085 0.07290572
0.17424245 0.051154386 0.07902466 -0.1549545 -0.16619216 0.16343114 0.2032542 0.05819627
-0.068865076 0.035858758 0.345617 -0.075259365 0.020766964 -0.00094001344 -0.047503542 -0.05170554
-0.10143401 0.12703677 0.2788644 0.022539752 0.28264824 -0.02758914 0.11543261 0.057044424
0.15537213 0.34915185 0.104100585 0.017727308 -0.013673783 -0.033682987 0.16539504 0.22211437
0.23018157 0.05142408 -0.071882345 0.116545245 -0.16206901 -0.030803107 -0.40805095 0.15688424
0.48417065 0.08675538 -0.28925475 0.07955521 -0.19196849 0.3099359 0.062548555 -0.030051408
0.06973225 0.042699974 0.016310388 -0.21767658 0.068879426 -0.11832892 -0.1336082 0.043136228
-0.20562422 -0.017593252 0.29349303 0.009080148 -0.17917532 0.29430646 -0.16061893 0.2871139
-0.25307465 0.36847028 -0.016492717 0.14954188 -0.13860238 0.2518216 -0.15076141 0.09745619
0.07235541 0.41906875 0.057029754 0.058904983 0.06243404 0.06930482 0.15669194 -0.10679779
0.16625421 -0.03339899 0.32980502 0.16999157 0.17281047 0.033333123 0.07290857 0.21174824
-0.04367053 -0.28950274 0.013548008 0.17706145 -0.07870168 0.28279746 0.17096537 0.07568605
-0.020298375 -0.13890025 0.11144565 -0.11233906 0.0670839 0.18795946 -0.011163741 0.10684659
-0.06422545 -0.051106088 0.10640136 0.17299283 -0.12727404 -0.028562805 -0.03673962 -0.12169238
0.20417172 -0.11586781 0.0598403 0.12322391 -0.035403814 0.10523537 0.053703614 -0.05866624
0.0039340276 0.08252223 0.00027935815 0.0088209445 0.1016781 0.40220898 0.1138823 0.11806245
-0.06633983 0.018469667 -0.023588222 0.3755642 0.1697594 0.18333526 -0.15820375 -0.11856148
0.6755228 0.22299689 -0.023805285 -0.14660743 0.02866347 -0.08098853 0.22095963 -0.041802254
0.39996955 0.04464557 0.57020193 -0.13570717 0.2524178 0.0007714846 -0.056820337 -0.06171907
0.018816294 -0.15147282 -0.11588229 -0.017311728 0.12857331 0.38590536 0.15932974 -0.116049476
-0.00040749786 0.07834596 0.05433726 0.17755672 0.21038216 0.10935278 0.2591233 0.12348544
0.06976822 0.11543833 0.13749819 0.07194991 -0.019437773 -0.12061467 0.097498745 -0.027141387
0.025646886 0.049271785 0.5653018 0.40030545 0.07577454 0.64415973 0.06492849 0.15111074
-0.120731704 0.028594904 0.07093406 0.04647888 0.01162185 -0.31436482 0.2886671 -0.063622385
-0.12872458 0.26861256 0.0065409327 -0.0079316385 -0.27255312 0.1945263 0.41795352 0.0029164157
0.065131746 -0.11855675 -0.025029017 0.020336527 0.1862508 -0.02888154 0.025072327 0.13559917
0.17266361 0.042261995 -0.103724554 -0.038816344 0.13639458 0.19576985 0.0051586665 -0.11602877
-0.0012663716 -0.059975173 0.15566373 0.1953968 0.28457257 -0.05507135 0.17421988 0.0037599495
00000000: 1e73 09be d03c 34bd 664f 6a3e b304 dabe
00000010: 5186 613d 221d 5fba 32fd 14bd 5bcd ccbd
00000020: 6e21 6fbd ec5c 95bd 343d 623c 4e6e ba3d
00000030: 2690 ef3c cf86 a53d a02f 9dbd 52b9 3bbc
00000040: 0c62 10bd deb8 87bc 6f5a 813d fdde 313c
00000050: 5874 7cbd 8f6e c33c d803 883d fda9 b93e
00000060: 4a85 743e 4d76 ae3d a1a3 af3d 0d54 c63d
00000070: b4e9 94bd 7d8a fe3e e1c6 2b3e 984f 953d
00000080: 9d6c 323e 4387 513d aed7 a13d 64ac 1ebe
00000090: 472e 2abe 7e5a 273e de21 503e 365f 6e3d
000000a0: 2209 8dbd a2e0 123d b6f4 b03e 9521 9abd
000000b0: 7b1f aa3c 3c6b 76ba 1393 42bd 30c9 53bd
000000c0: a2bc cfbd ed15 023e 51c7 8e3e 49a5 b83c
000000d0: 45b7 903e 9f02 e2bc ef67 ec3d 6aa7 693d
000000e0: df19 1f3e 08c4 b23e b032 d53d dc38 913c
000000f0: 0108 60bc 2cf7 09bd 515d 293e f371 633e
00000100: b8b4 6b3e 0ea2 523d 0d37 93bd 46af ee3d
00000110: 6bf5 25be cc56 fcbc 0eec d0be 43a6 203e
00000120: 37e5 f73e ceac b13d 3319 94be d8ed a23d
00000130: 6393 44be ebaf 9e3e 7519 803d 5f2e f6bc
00000140: c8cf 8e3d 2be6 2e3d 5d9d 853c 9ce6 5ebe
00000150: a810 8d3d 6f56 f2bd 97d0 08be 9daf 303d
00000160: 288f 52be b91f 90bc b844 963e e7c4 143c
00000170: bc79 37be 56af 963e 4a79 24be 9800 933e
00000180: 0093 81be 23a8 bc3e bc1b 87bc 8221 193e
00000190: c8ed 0dbe c3ee 803e 3361 1abe 1c97 c73d
000001a0: 132f 943d 2e90 d63e 0898 693d 5a46 713d
000001b0: d6ba 7f3d afef 8d3d da73 203e cdb8 dabd
000001c0: 8b3e 2a3e 61cd 08bd 34dc a83e 4512 2e3e
000001d0: 3af5 303e 5088 083d 1751 953d 88d4 583e
000001e0: dfdf 32bd b439 94be 77f8 5d3c 994f 353e
000001f0: 592e a1bd d4ca 903e 8c11 2f3e 4a01 9b3d
00000200: c748 a6bc de3b 0ebe 9e3d e43d 0512 e6bd
00000210: 4963 893d 7278 403e 20e8 36bc 63d2 da3d
00000220: a288 83bd 9e54 51bd f5e8 d93d 0825 313e
00000230: 2054 02be 8bfc e9bc 497c 16bd db39 f9bd
00000240: 6412 513e 1a4c edbd 1a1b 753d d15c fc3d
00000250: 9703 11bd a485 d73d 52f8 5b3d 034c 70bd
00000260: 04e9 803b 6a01 a93d d176 9239 b985 103c
00000270: 9c3c d03d 56ee cd3e 203b e93d baca f13d
00000280: 2ddd 87bd b34d 973c 163c c1bc f349 c03e
00000290: 68d5 2d3e 3dbc 3b3e 2a00 22be 5cd0 f2bd
000002a0: 10ef 2c3f 4c59 643e 4d03 c3bc 4220 16be
000002b0: a7cf ea3c 50dd a5bd 3e43 623e d738 2bbd
000002c0: cfc8 cc3e 46de 363d c1f8 113f d2f6 0abe
000002d0: e83c 813e 753d 4a3a 71bc 68bd 23cd 7cbd
000002e0: a124 9a3c b11b 1bbe b253 edbd 53d1 8dbc
000002f0: b9a8 033e 6395 c53e 5627 233e 59ab edbd
00000300: 70a5 d5b9 d973 a03d bf90 5e3d 6ed1 353e
00000310: 6c6e 573e 5af4 df3d cfab 843e efe5 fc3d
00000320: a4e2 8e3d ee6a ec3d 53cc 0c3e 795a 933d
00000330: f73b 9fbc d304 f7bd 6cad c73d 9d57 debc
00000340: 6b19 d23c 36d1 493d 9eb7 103f d6f4 cc3e
00000350: af2f 9b3d a7e7 243f 3af9 843d c6bc 1a3e
00000360: 2f42 f7bd dc3f ea3c e045 913d a360 3e3d
00000370: 9269 3e3c 6df4 a0be 2dcc 933e 744c 82bd
00000380: 60d0 03be 9687 893e 5255 d63b b4f3 01bc
00000390: 158c 8bbe e731 473e 01fe d53e 5621 3f3b
000003a0: cb63 853d e2cd f2bd a709 cdbc ca98 a63c
000003b0: 88b8 3e3e fb98 ecbc 7b64 cd3c 82da 0a3e
000003c0: bbce 303e ea1a 2d3d 8a6d d4bd e3fd 1ebd
000003d0: 05ab 0b3e e477 483e 080a a93b 7ea0 edbd
000003e0: 61fc a5ba 87a8 75bd 5066 1f3e 1916 483e
000003f0: 7fb3 913e 7f92 61bd b266 323e 7c69 763b

net.4.bias f4 [10]
0.03522062 0.076110356 0.09170322 0.110454984 0.09120571 0.040023252 0.096845336 0.06559476
0.02351923 0.09390313
00000000: 7f43 103d bfdf 9b3d e6ce bb3d 3936 e23d
00000010: 0fca ba3d 6cef 233d d956 c63d 8c56 863d
00000020: 66ab c03c 4950 c03d
